scripts/experiment2-detection-algotithm/data/kernel-synthetic.npy (npy, 1256 bytes, 1 tensors)

array f8 [141]
0.0 0.0 0.0 0.0 0.0 0.0 0.0 0.0
0.0 0.0 0.0 0.0 0.0 0.0 0.0 0.0
0.0 0.0 0.0 0.0 -0.0 -0.08351139097398678 -0.16669320064052467 -0.24921714839901377
-0.3307575499292569 -0.4109926025186801 -0.48960565507062176 -0.5662864577815467 -0.6407323865552814 -0.7126496373220655 -0.7817543855489894 -0.8477739063657574
-0.910447650885156 -0.9695282744704774 -1.0247826128917998 -1.0759926025186801 -1.12295614091768 -1.1654878844583387 -1.2034199797798062 -1.2366027262313746
-1.2649051666725544 -1.2882156043010795 -1.3064420434691562 -1.3195125527482556 -1.3273755488096013 -1.33 -1.3273755488096013 -1.3195125527482554
-1.306442043469156 -1.2882156043010795 -1.2649051666725544 -1.2366027262313743 -1.203419979779806 -1.1654878844583385 -1.12295614091768 -1.0759926025186801
-1.0247826128917998 -0.9695282744704773 -0.9104476508851558 -0.8477739063657571 -0.7817543855489895 -0.7126496373220655 -0.6407323865552813 -0.5662864577815464
-0.4896056550706214 -0.4109926025186797 -0.33075754992925693 -0.24921714839901368 -0.16669320064052445 -0.08351139097398648 4.2776062481398537e-16 0.08351139097398676
0.1666932006405247 0.24921714839901396 0.3307575499292572 0.4109926025186805 0.4896056550706222 0.5662864577815466 0.6407323865552815 0.7126496373220658
0.7817543855489896 0.8477739063657577 0.910447650885156 0.9695282744704774 1.0247826128917998 1.0759926025186801 1.1229561409176805 1.1654878844583387
1.2034199797798064 1.2366027262313746 1.2649051666725544 1.2882156043010795 1.3064420434691562 1.3195125527482556 1.3273755488096013 1.33
1.3273755488096013 1.3195125527482556 1.306442043469156 1.2882156043010795 1.2649051666725544 1.2366027262313741 1.2034199797798062 1.1654878844583383
1.12295614091768 1.0759926025186797 1.0247826128917994 0.9695282744704774 0.9104476508851554 0.8477739063657572 0.7817543855489886 0.7126496373220651
0.6407323865552814 0.5662864577815461 0.4896056550706216 0.41099260251867925 0.3307575499292565 0.24921714839901385 0.16669320064052404 0.08351139097398665
3.2575604857319597e-16 0.0 0.0 0.0 0.0 0.0 0.0 0.0
0.0 0.0 0.0 0.0 0.0 0.0 0.0 0.0
0.0 0.0 0.0 0.0 0.0
00000000: 0000 0000 0000 0000 0000 0000 0000 0000
00000010: 0000 0000 0000 0000 0000 0000 0000 0000
00000020: 0000 0000 0000 0000 0000 0000 0000 0000
00000030: 0000 0000 0000 0000 0000 0000 0000 0000
00000040: 0000 0000 0000 0000 0000 0000 0000 0000
00000050: 0000 0000 0000 0000 0000 0000 0000 0000
00000060: 0000 0000 0000 0000 0000 0000 0000 0000
00000070: 0000 0000 0000 0000 0000 0000 0000 0000
00000080: 0000 0000 0000 0000 0000 0000 0000 0000
00000090: 0000 0000 0000 0000 0000 0000 0000 0000
000000a0: 0000 0000 0000 0080 6ba5 13a5 0061 b5bf
000000b0: 32ba 9bea 3356 c5bf 40f2 fcf6 58e6 cfbf
000000c0: ce7a f6b6 212b d5bf 58cd adea b34d dabf
000000d0: 2fc2 1df5 b255 dfbf 98dc 0ac7 041f e2bf
000000e0: 5cc6 b734 e180 e4bf bbbe b99c 06ce e6bf
000000f0: dfff edc5 2104 e9bf 6ec7 47be f620 ebbf
00000100: 58b2 a81c 6322 edbf 84bc ec28 6006 efbf
00000110: 4913 fe73 8265 f0bf fae3 e804 4437 f1bf
00000120: 4257 c1db a0f7 f1bf ea1f ba9f d6a5 f2bf
00000130: b11d 084f 3541 f3bf 5eee b4f0 1fc9 f3bf
00000140: 9b66 3633 0d3d f4bf 60b8 2af7 879c f4bf
00000150: 691c adc5 2fe7 f4bf 9871 cb31 b91c f5bf
00000160: 4c5b ba24 ee3c f5bf 48e1 7a14 ae47 f5bf
00000170: 4c5b ba24 ee3c f5bf 9771 cb31 b91c f5bf
00000180: 681c adc5 2fe7 f4bf 60b8 2af7 879c f4bf
00000190: 9b66 3633 0d3d f4bf 5dee b4f0 1fc9 f3bf
000001a0: b01d 084f 3541 f3bf e91f ba9f d6a5 f2bf
000001b0: 4257 c1db a0f7 f1bf fae3 e804 4437 f1bf
000001c0: 4913 fe73 8265 f0bf 83bc ec28 6006 efbf
000001d0: 56b2 a81c 6322 edbf 6bc7 47be f620 ebbf
000001e0: e0ff edc5 2104 e9bf bbbe b99c 06ce e6bf
000001f0: 5bc6 b734 e180 e4bf 95dc 0ac7 041f e2bf
00000200: 29c2 1df5 b255 dfbf 51cd adea b34d dabf
00000210: cf7a f6b6 212b d5bf 3df2 fcf6 58e6 cfbf
00000220: 2aba 9bea 3356 c5bf 55a5 13a5 0061 b5bf
00000230: b0bd f36f cad2 be3c 69a5 13a5 0061 b53f
00000240: 33ba 9bea 3356 c53f 47f2 fcf6 58e6 cf3f
00000250: d47a f6b6 212b d53f 60cd adea b34d da3f
00000260: 37c2 1df5 b255 df3f 97dc 0ac7 041f e23f
00000270: 5dc6 b734 e180 e43f bdbe b99c 06ce e63f
00000280: e1ff edc5 2104 e93f 70c7 47be f620 eb3f
00000290: 58b2 a81c 6322 ed3f 84bc ec28 6006 ef3f
000002a0: 4913 fe73 8265 f03f fae3 e804 4437 f13f
000002b0: 4457 c1db a0f7 f13f ea1f ba9f d6a5 f23f
000002c0: b21d 084f 3541 f33f 5eee b4f0 1fc9 f33f
000002d0: 9b66 3633 0d3d f43f 60b8 2af7 879c f43f
000002e0: 691c adc5 2fe7 f43f 9871 cb31 b91c f53f
000002f0: 4c5b ba24 ee3c f53f 48e1 7a14 ae47 f53f
00000300: 4c5b ba24 ee3c f53f 9871 cb31 b91c f53f
00000310: 681c adc5 2fe7 f43f 60b8 2af7 879c f43f
00000320: 9b66 3633 0d3d f43f 5cee b4f0 1fc9 f33f
00000330: b11d 084f 3541 f33f e81f ba9f d6a5 f23f
00000340: 4257 c1db a0f7 f13f f8e3 e804 4437 f13f
00000350: 4713 fe73 8265 f03f 84bc ec28 6006 ef3f
00000360: 53b2 a81c 6322 ed3f 6cc7 47be f620 eb3f
00000370: d8ff edc5 2104 e93f b7be b99c 06ce e63f
00000380: 5cc6 b734 e180 e43f 92dc 0ac7 041f e23f
00000390: 2cc2 1df5 b255 df3f 49cd adea b34d da3f
000003a0: c77a f6b6 212b d53f 43f2 fcf6 58e6 cf3f
000003b0: 1bba 9bea 3356 c53f 61a5 13a5 0061 b53f
000003c0: c209 0472 2379 b73c 0000 0000 0000 0000
000003d0: 0000 0000 0000 0000 0000 0000 0000 0000
000003e0: 0000 0000 0000 0000 0000 0000 0000 0000
000003f0: 0000 0000 0000 0000 0000 0000 0000 0000
00000400: 0000 0000 0000 0000 0000 0000 0000 0000
00000410: 0000 0000 0000 0000 0000 0000 0000 0000
00000420: 0000 0000 0000 0000 0000 0000 0000 0000
00000430: 0000 0000 0000 0000 0000 0000 0000 0000
00000440: 0000 0000 0000 0000 0000 0000 0000 0000
00000450: 0000 0000 0000 0000 0000 0000 0000 0000
00000460: 0000 0000 0000 0000
