scripts/experiment2-detection-algotithm/data/kernel-synthetic.npy (npy, 1096 bytes, 1 tensors)

array f8 [121]
00000000: 0000 0000 0000 0000 0000 0000 0000 0000
00000010: 0000 0000 0000 0000 0000 0000 0000 0000
00000020: 0000 0000 0000 0000 0000 0000 0000 0000
00000030: 0000 0000 0000 0000 0000 0000 0000 0000
00000040: 0000 0000 0000 0000 0000 0000 0000 0000
00000050: 0000 0000 0000 0000 0000 0000 0000 0000
00000060: 0000 0000 0000 0000 0000 0000 0000 0000
00000070: 0000 0000 0000 0000 0000 0000 0000 0000
00000080: 0000 0000 0000 0000 0000 0000 0000 0000
00000090: 0000 0000 0000 0000 0000 0000 0000 0000
000000a0: 0000 0000 0000 0080 9a8c cc82 b8b6 babf
000000b0: 0a46 06a6 a3a1 cabf 6750 8d4b f1de d3bf
000000c0: 58cd adea b34d dabf 0b97 7148 7949 e0bf
000000d0: 3bad 88d2 6352 e3bf fe7d ac59 cf3c e6bf
000000e0: dfff edc5 2104 e9bf dceb c864 f8a3 ebbf
000000f0: 0dfb 1ed5 2e18 eebf fcbe 6bc8 722e f0bf
00000100: fae3 e804 4437 f1bf f937 4228 e924 f2bf
00000110: 9514 af1d ebf5 f2bf a1e5 6203 00a9 f3bf
00000120: 9b66 3633 0d3d f4bf c553 c400 29b1 f4bf
00000130: bd72 392a 9c04 f5bf 56d7 91f9 e236 f5bf
00000140: 48e1 7a14 ae47 f5bf 56d7 91f9 e236 f5bf
00000150: bd72 392a 9c04 f5bf c653 c400 29b1 f4bf
00000160: 9b66 3633 0d3d f4bf a1e5 6203 00a9 f3bf
00000170: 9614 af1d ebf5 f2bf fa37 4228 e924 f2bf
00000180: fae3 e804 4437 f1bf fdbe 6bc8 722e f0bf
00000190: 0ffb 1ed5 2e18 eebf ddeb c864 f8a3 ebbf
000001a0: e0ff edc5 2104 e9bf ff7d ac59 cf3c e6bf
000001b0: 3dad 88d2 6352 e3bf 0c97 7148 7949 e0bf
000001c0: 5acd adea b34d dabf 6b50 8d4b f1de d3bf
000001d0: 0f46 06a6 a3a1 cabf a68c cc82 b8b6 babf
000001e0: c209 0472 2379 a7bc 8e8c cc82 b8b6 ba3f
000001f0: 0346 06a6 a3a1 ca3f 6550 8d4b f1de d33f
00000200: 55cd adea b34d da3f 0a97 7148 7949 e03f
00000210: 3bad 88d2 6352 e33f fd7d ac59 cf3c e63f
00000220: ddff edc5 2104 e93f daeb c864 f8a3 eb3f
00000230: 0dfb 1ed5 2e18 ee3f fabe 6bc8 722e f03f
00000240: fae3 e804 4437 f13f fa37 4228 e924 f23f
00000250: 9514 af1d ebf5 f23f 9fe5 6203 00a9 f33f
00000260: 9b66 3633 0d3d f43f c653 c400 29b1 f43f
00000270: bd72 392a 9c04 f53f 56d7 91f9 e236 f53f
00000280: 48e1 7a14 ae47 f53f 56d7 91f9 e236 f53f
00000290: bd72 392a 9c04 f53f c753 c400 29b1 f43f
000002a0: 9b66 3633 0d3d f43f a0e5 6203 00a9 f33f
000002b0: 9614 af1d ebf5 f23f fb37 4228 e924 f23f
000002c0: fbe3 e804 4437 f13f fcbe 6bc8 722e f03f
000002d0: 10fb 1ed5 2e18 ee3f e2eb c864 f8a3 eb3f
000002e0: e1ff edc5 2104 e93f fd7d ac59 cf3c e63f
000002f0: 3ead 88d2 6352 e33f 1297 7148 7949 e03f
00000300: 5dcd adea b34d da3f 6350 8d4b f1de d33f
00000310: 1646 06a6 a3a1 ca3f db8c cc82 b8b6 ba3f
00000320: c209 0472 2379 b73c 0000 0000 0000 0000
00000330: 0000 0000 0000 0000 0000 0000 0000 0000
00000340: 0000 0000 0000 0000 0000 0000 0000 0000
00000350: 0000 0000 0000 0000 0000 0000 0000 0000
00000360: 0000 0000 0000 0000 0000 0000 0000 0000
00000370: 0000 0000 0000 0000 0000 0000 0000 0000
00000380: 0000 0000 0000 0000 0000 0000 0000 0000
00000390: 0000 0000 0000 0000 0000 0000 0000 0000
000003a0: 0000 0000 0000 0000 0000 0000 0000 0000
000003b0: 0000 0000 0000 0000 0000 0000 0000 0000
000003c0: 0000 0000 0000 0000
0.0 0.0 0.0 0.0 0.0 0.0 0.0 0.0
0.0 0.0 0.0 0.0 0.0 0.0 0.0 0.0
0.0 0.0 0.0 0.0 -0.0 -0.10435059731803378 -0.20805783850350706 -0.31048233392835417
-0.4109926025186801 -0.5089689650455694 -0.6038073646535972 -0.694923091072212 -0.7817543855489894 -0.8637659042791443 -0.9404520189781082 -1.0113399342480411
-1.0759926025186801 -1.1340114185909427 -1.1850386771705292 -1.2287597782400115 -1.2649051666725544 -1.2932519941289098 -1.3136254929915332 -1.3259000538650603
-1.33 -1.3259000538650603 -1.3136254929915332 -1.29325199412891 -1.2649051666725544 -1.2287597782400115 -1.1850386771705295 -1.134011418590943
-1.0759926025186801 -1.0113399342480414 -0.9404520189781084 -0.8637659042791445 -0.7817543855489895 -0.6949230910722121 -0.6038073646535974 -0.5089689650455695
-0.4109926025186802 -0.3104823339283544 -0.2080578385035072 -0.10435059731803395 -1.6287802428659799e-16 0.10435059731803362 0.20805783850350687 0.31048233392835406
0.4109926025186799 0.5089689650455693 0.6038073646535972 0.6949230910722118 0.7817543855489891 0.8637659042791441 0.9404520189781082 1.0113399342480407
1.0759926025186801 1.134011418590943 1.1850386771705292 1.228759778240011 1.2649051666725544 1.29325199412891 1.3136254929915332 1.3259000538650603
1.33 1.3259000538650603 1.3136254929915332 1.2932519941289102 1.2649051666725544 1.2287597782400113 1.1850386771705295 1.1340114185909431
1.0759926025186803 1.0113399342480411 0.9404520189781085 0.863765904279145 0.7817543855489896 0.6949230910722118 0.6038073646535975 0.5089689650455702
0.41099260251868036 0.31048233392835395 0.2080578385035074 0.10435059731803469 3.2575604857319597e-16 0.0 0.0 0.0
0.0 0.0 0.0 0.0 0.0 0.0 0.0 0.0
0.0 0.0 0.0 0.0 0.0 0.0 0.0 0.0
0.0
